…
The value is the same before and after calling `init_weights` of MultiEncoderDecoder  

auxiliary_head.convs.0.bn.bias - torch.Size([128]): 
The value is the same before and after calling `init_weights` of MultiEncoderDecoder  
2022-07-01 11:42:12,050 - mmseg - INFO - MultiEncoderDecoder(
  (backbone): MobileNetV3(
    (layer0): ConvModule(
      (conv): Conv2dAdaptivePadding(3, 16, kernel_size=(3, 3), stride=(2, 2), bias=False)
      (bn): SyncBatchNorm(16, eps=0.001, momentum=0.1, affine=True, track_running_stats=True)
      (activate): Hardswish()
    )
    (layer1): InvertedResidualV3(
      (depthwise_conv): ConvModule(
        (conv): Conv2d(16, 16, kernel_size=(3, 3), stride=(1, 1), padding=(1, 1), groups=16, bias=False)
        (bn): SyncBatchNorm(16, eps=0.001, momentum=0.1, affine=True, track_running_stats=True)
        (activate): ReLU(inplace=True)
      )
      (linear_conv): ConvModule(
        (conv): Conv2d(16, 16, kernel_size=(1, 1), stride=(1, 1), bias=False)
        (bn): SyncBatchNorm(16, eps=0.001, momentum=0.1, affine=True, track_running_stats=True)
      )
    )
    (layer2): InvertedResidualV3(
      (expand_conv): ConvModule(
        (conv): Conv2d(16, 64, kernel_size=(1, 1), stride=(1, 1), bias=False)
        (bn): SyncBatchNorm(64, eps=0.001, momentum=0.1, affine=True, track_running_stats=True)
        (activate): ReLU(inplace=True)
      )
      (depthwise_conv): ConvModule(
        (conv): Conv2dAdaptivePadding(64, 64, kernel_size=(3, 3), stride=(2, 2), groups=64, bias=False)
        (bn): SyncBatchNorm(64, eps=0.001, momentum=0.1, affine=True, track_running_stats=True)
        (activate): ReLU(inplace=True)
      )
      (linear_conv): ConvModule(
        (conv): Conv2d(64, 24, kernel_size=(1, 1), stride=(1, 1), bias=False)
        (bn): SyncBatchNorm(24, eps=0.001, momentum=0.1, affine=True, track_running_stats=True)
      )
    )
    (layer3): InvertedResidualV3(
      (expand_conv): ConvModule(
        (conv): Conv2d(24, 72, kernel_size=(1, 1), stride=(1, 1), bias=False)
        (bn): SyncBatchNorm(72, eps=0.001, momentum=0.1, affine=True, track_running_stats=True)
        (activate): ReLU(inplace=True)
      )
      (depthwise_conv): ConvModule(
        (conv): Conv2d(72, 72, kernel_size=(3, 3), stride=(1, 1), padding=(1, 1), groups=72, bias=False)
        (bn): SyncBatchNorm(72, eps=0.001, momentum=0.1, affine=True, track_running_stats=True)
        (activate): ReLU(inplace=True)
      )
      (linear_conv): ConvModule(
        (conv): Conv2d(72, 24, kernel_size=(1, 1), stride=(1, 1), bias=False)
        (bn): SyncBatchNorm(24, eps=0.001, momentum=0.1, affine=True, track_running_stats=True)
      )
    )
    (layer4): InvertedResidualV3(
      (expand_conv): ConvModule(
        (conv): Conv2d(24, 72, kernel_size=(1, 1), stride=(1, 1), bias=False)
        (bn): SyncBatchNorm(72, eps=0.001, momentum=0.1, affine=True, track_running_stats=True)
        (activate): ReLU(inplace=True)
      )
      (depthwise_conv): ConvModule(
        (conv): Conv2dAdaptivePadding(72, 72, kernel_size=(5, 5), stride=(2, 2), groups=72, bias=False)
        (bn): SyncBatchNorm(72, eps=0.001, momentum=0.1, affine=True, track_running_stats=True)
        (activate): ReLU(inplace=True)
      )
      (se): SELayer(
        (global_avgpool): AdaptiveAvgPool2d(output_size=1)
        (conv1): ConvModule(
          (conv): Conv2d(72, 24, kernel_size=(1, 1), stride=(1, 1))
          (activate): ReLU(inplace=True)
        )
        (conv2): ConvModule(
          (conv): Conv2d(24, 72, kernel_size=(1, 1), stride=(1, 1))
          (activate): HSigmoid()
        )
      )
      (linear_conv): ConvModule(
        (conv): Conv2d(72, 40, kernel_size=(1, 1), stride=(1, 1), bias=False)
        (bn): SyncBatchNorm(40, eps=0.001, momentum=0.1, affine=True, track_running_stats=True)
      )
    )
    (layer5): InvertedResidualV3(
      (expand_conv): ConvModule(
        (conv): Conv2d(40, 120, kernel_size=(1, 1), stride=(1, 1), bias=False)
        (bn): SyncBatchNorm(120, eps=0.001, momentum=0.1, affine=True, track_running_stats=True)
        (activate): ReLU(inplace=True)
      )
      (depthwise_conv): ConvModule(
        (conv): Conv2d(120, 120, kernel_size=(5, 5), stride=(1, 1), padding=(2, 2), groups=120, bias=False)
        (bn): SyncBatchNorm(120, eps=0.001, momentum=0.1, affine=True, track_running_stats=True)
        (activate): ReLU(inplace=True)
      )
      (se): SELayer(
        (global_avgpool): AdaptiveAvgPool2d(output_size=1)
        (conv1): ConvModule(
          (conv): Conv2d(120, 32, kernel_size=(1, 1), stride=(1, 1))
          (activate): ReLU(inplace=True)
        )
        (conv2): ConvModule(
          (conv): Conv2d(32, 120, kernel_size=(1, 1), stride=(1, 1))
          (activate): HSigmoid()
        )
      )
      (linear_conv): ConvModule(
        (conv): Conv2d(120, 40, kernel_size=(1, 1), stride=(1, 1), bias=False)
        (bn): SyncBatchNorm(40, eps=0.001, momentum=0.1, affine=True, track_running_stats=True)
      )
    )
    (layer6): InvertedResidualV3(
      (expand_conv): ConvModule(
        (conv): Conv2d(40, 120, kernel_size=(1, 1), stride=(1, 1), bias=False)
        (bn): SyncBatchNorm(120, eps=0.001, momentum=0.1, affine=True, track_running_stats=True)
        (activate): ReLU(inplace=True)
      )
      (depthwise_conv): ConvModule(
        (conv): Conv2d(120, 120, kernel_size=(5, 5), stride=(1, 1), padding=(2, 2), groups=120, bias=False)
        (bn): SyncBatchNorm(120, eps=0.001, momentum=0.1, affine=True, track_running_stats=True)
        (activate): ReLU(inplace=True)
      )
      (se): SELayer(
        (global_avgpool): AdaptiveAvgPool2d(output_size=1)
        (conv1): ConvModule(
          (conv): Conv2d(120, 32, kernel_size=(1, 1), stride=(1, 1))
          (activate): ReLU(inplace=True)
        )
        (conv2): ConvModule(
          (conv): Conv2d(32, 120, kernel_size=(1, 1), stride=(1, 1))
          (activate): HSigmoid()
        )
      )
      (linear_conv): ConvModule(
        (conv): Conv2d(120, 40, kernel_size=(1, 1), stride=(1, 1), bias=False)
        (bn): SyncBatchNorm(40, eps=0.001, momentum=0.1, affine=True, track_running_stats=True)
      )
    )
    (layer7): InvertedResidualV3(
      (expand_conv): ConvModule(
        (conv): Conv2d(40, 240, kernel_size=(1, 1), stride=(1, 1), bias=False)
        (bn): SyncBatchNorm(240, eps=0.001, momentum=0.1, affine=True, track_running_stats=True)
        (activate): Hardswish()
      )
      (depthwise_conv): ConvModule(
        (conv): Conv2dAdaptivePadding(240, 240, kernel_size=(3, 3), stride=(1, 1), dilation=(2, 2), groups=240, bias=False)
        (bn): SyncBatchNorm(240, eps=0.001, momentum=0.1, affine=True, track_running_stats=True)
        (activate): Hardswish()
      )
      (linear_conv): ConvModule(
        (conv): Conv2d(240, 80, kernel_size=(1, 1), stride=(1, 1), bias=False)
        (bn): SyncBatchNorm(80, eps=0.001, momentum=0.1, affine=True, track_running_stats=True)
      )
    )
    (layer8): InvertedResidualV3(
      (expand_conv): ConvModule(
        (conv): Conv2d(80, 200, kernel_size=(1, 1), stride=(1, 1), bias=False)
        (bn): SyncBatchNorm(200, eps=0.001, momentum=0.1, affine=True, track_running_stats=True)
        (activate): Hardswish()
      )
      (depthwise_conv): ConvModule(
        (conv): Conv2d(200, 200, kernel_size=(3, 3), stride=(1, 1), padding=(2, 2), dilation=(2, 2), groups=200, bias=False)
        (bn): SyncBatchNorm(200, eps=0.001, momentum=0.1, affine=True, track_running_stats=True)
        (activate): Hardswish()
      )
      (linear_conv): ConvModule(
        (conv): Conv2d(200, 80, kernel_size=(1, 1), stride=(1, 1), bias=False)
        (bn): SyncBatchNorm(80, eps=0.001, momentum=0.1, affine=True, track_running_stats=True)
      )
    )
    (layer9): InvertedResidualV3(
      (expand_conv): ConvModule(
        (conv): Conv2d(80, 184, kernel_size=(1, 1), stride=(1, 1), bias=False)
        (bn): SyncBatchNorm(184, eps=0.001, momentum=0.1, affine=True, track_running_stats=True)
        (activate): Hardswish()
      )
      (depthwise_conv): ConvModule(
        (conv): Conv2d(184, 184, kernel_size=(3, 3), stride=(1, 1), padding=(2, 2), dilation=(2, 2), groups=184, bias=False)
        (bn): SyncBatchNorm(184, eps=0.001, momentum=0.1, affine=True, track_running_stats=True)
        (activate): Hardswish()
      )
      (linear_conv): ConvModule(
        (conv): Conv2d(184, 80, kernel_size=(1, 1), stride=(1, 1), bias=False)
        (bn): SyncBatchNorm(80, eps=0.001, momentum=0.1, affine=True, track_running_stats=True)
      )
    )
    (layer10): InvertedResidualV3(
      (expand_conv): ConvModule(
        (conv): Conv2d(80, 184, kernel_size=(1, 1), stride=(1, 1), bias=False)
        (bn): SyncBatchNorm(184, eps=0.001, momentum=0.1, affine=True, track_running_stats=True)
        (activate): Hardswish()
      )
      (depthwise_conv): ConvModule(
        (conv): Conv2d(184, 184, kernel_size=(3, 3), stride=(1, 1), padding=(2, 2), dilation=(2, 2), groups=184, bias=False)
        (bn): SyncBatchNorm(184, eps=0.001, momentum=0.1, affine=True, track_running_stats=True)
        (activate): Hardswish()
      )
      (linear_conv): ConvModule(
        (conv): Conv2d(184, 80, kernel_size=(1, 1), stride=(1, 1), bias=False)
        (bn): SyncBatchNorm(80, eps=0.001, momentum=0.1, affine=True, track_running_stats=True)
      )
    )
    (layer11): InvertedResidualV3(
      (expand_conv): ConvModule(
        (conv): Conv2d(80, 480, kernel_size=(1, 1), stride=(1, 1), bias=False)
        (bn): SyncBatchNorm(480, eps=0.001, momentum=0.1, affine=True, track_running_stats=True)
        (activate): Hardswish()
      )
      (depthwise_conv): ConvModule(
        (conv): Conv2d(480, 480, kernel_size=(3, 3), stride=(1, 1), padding=(2, 2), dilation=(2, 2), groups=480, bias=False)
        (bn): SyncBatchNorm(480, eps=0.001, momentum=0.1, affine=True, track_running_stats=True)
        (activate): Hardswish()
      )
      (se): SELayer(
        (global_avgpool): AdaptiveAvgPool2d(output_size=1)
        (conv1): ConvModule(
          (conv): Conv2d(480, 120, kernel_size=(1, 1), stride=(1, 1))
          (activate): ReLU(inplace=True)
        )
        (conv2): ConvModule(
          (conv): Conv2d(120, 480, kernel_size=(1, 1), stride=(1, 1))
          (activate): HSigmoid()
        )
      )
      (linear_conv): ConvModule(
        (conv): Conv2d(480, 112, kernel_size=(1, 1), stride=(1, 1), bias=False)
        (bn): SyncBatchNorm(112, eps=0.001, momentum=0.1, affine=True, track_running_stats=True)
      )
    )
    (layer12): InvertedResidualV3(
      (expand_conv): ConvModule(
        (conv): Conv2d(112, 672, kernel_size=(1, 1), stride=(1, 1), bias=False)
        (bn): SyncBatchNorm(672, eps=0.001, momentum=0.1, affine=True, track_running_stats=True)
        (activate): Hardswish()
      )
      (depthwise_conv): ConvModule(
        (conv): Conv2d(672, 672, kernel_size=(3, 3), stride=(1, 1), padding=(2, 2), dilation=(2, 2), groups=672, bias=False)
        (bn): SyncBatchNorm(672, eps=0.001, momentum=0.1, affine=True, track_running_stats=True)
        (activate): Hardswish()
      )
      (se): SELayer(
        (global_avgpool): AdaptiveAvgPool2d(output_size=1)
        (conv1): ConvModule(
          (conv): Conv2d(672, 168, kernel_size=(1, 1), stride=(1, 1))
          (activate): ReLU(inplace=True)
        )
        (conv2): ConvModule(
          (conv): Conv2d(168, 672, kernel_size=(1, 1), stride=(1, 1))
          (activate): HSigmoid()
        )
      )
      (linear_conv): ConvModule(
        (conv): Conv2d(672, 112, kernel_size=(1, 1), stride=(1, 1), bias=False)
        (bn): SyncBatchNorm(112, eps=0.001, momentum=0.1, affine=True, track_running_stats=True)
      )
    )
    (layer13): InvertedResidualV3(
      (expand_conv): ConvModule(
        (conv): Conv2d(112, 672, kernel_size=(1, 1), stride=(1, 1), bias=False)
        (bn): SyncBatchNorm(672, eps=0.001, momentum=0.1, affine=True, track_running_stats=True)
        (activate): Hardswish()
      )
      (depthwise_conv): ConvModule(
        (conv): Conv2dAdaptivePadding(672, 672, kernel_size=(5, 5), stride=(1, 1), dilation=(4, 4), groups=672, bias=False)
        (bn): SyncBatchNorm(672, eps=0.001, momentum=0.1, affine=True, track_running_stats=True)
        (activate): Hardswish()
      )
      (se): SELayer(
        (global_avgpool): AdaptiveAvgPool2d(output_size=1)
        (conv1): ConvModule(
          (conv): Conv2d(672, 168, kernel_size=(1, 1), stride=(1, 1))
          (activate): ReLU(inplace=True)
        )
        (conv2): ConvModule(
          (conv): Conv2d(168, 672, kernel_size=(1, 1), stride=(1, 1))
          (activate): HSigmoid()
        )
      )
      (linear_conv): ConvModule(
        (conv): Conv2d(672, 160, kernel_size=(1, 1), stride=(1, 1), bias=False)
        (bn): SyncBatchNorm(160, eps=0.001, momentum=0.1, affine=True, track_running_stats=True)
      )
    )
    (layer14): InvertedResidualV3(
      (expand_conv): ConvModule(
        (conv): Conv2d(160, 960, kernel_size=(1, 1), stride=(1, 1), bias=False)
        (bn): SyncBatchNorm(960, eps=0.001, momentum=0.1, affine=True, track_running_stats=True)
        (activate): Hardswish()
      )
      (depthwise_conv): ConvModule(
        (conv): Conv2d(960, 960, kernel_size=(5, 5), stride=(1, 1), padding=(8, 8), dilation=(4, 4), groups=960, bias=False)
        (bn): SyncBatchNorm(960, eps=0.001, momentum=0.1, affine=True, track_running_stats=True)
        (activate): Hardswish()
      )
      (se): SELayer(
        (global_avgpool): AdaptiveAvgPool2d(output_size=1)
        (conv1): ConvModule(
          (conv): Conv2d(960, 240, kernel_size=(1, 1), stride=(1, 1))
          (activate): ReLU(inplace=True)
        )
        (conv2): ConvModule(
          (conv): Conv2d(240, 960, kernel_size=(1, 1), stride=(1, 1))
          (activate): HSigmoid()
        )
      )
      (linear_conv): ConvModule(
        (conv): Conv2d(960, 160, kernel_size=(1, 1), stride=(1, 1), bias=False)
        (bn): SyncBatchNorm(160, eps=0.001, momentum=0.1, affine=True, track_running_stats=True)
      )
    )
    (layer15): InvertedResidualV3(
      (expand_conv): ConvModule(
        (conv): Conv2d(160, 960, kernel_size=(1, 1), stride=(1, 1), bias=False)
        (bn): SyncBatchNorm(960, eps=0.001, momentum=0.1, affine=True, track_running_stats=True)
        (activate): Hardswish()
      )
      (depthwise_conv): ConvModule(
        (conv): Conv2d(960, 960, kernel_size=(5, 5), stride=(1, 1), padding=(8, 8), dilation=(4, 4), groups=960, bias=False)
        (bn): SyncBatchNorm(960, eps=0.001, momentum=0.1, affine=True, track_running_stats=True)
        (activate): Hardswish()
      )
      (se): SELayer(
        (global_avgpool): AdaptiveAvgPool2d(output_size=1)
        (conv1): ConvModule(
          (conv): Conv2d(960, 240, kernel_size=(1, 1), stride=(1, 1))
          (activate): ReLU(inplace=True)
        )
        (conv2): ConvModule(
          (conv): Conv2d(240, 960, kernel_size=(1, 1), stride=(1, 1))
          (activate): HSigmoid()
        )
      )
      (linear_conv): ConvModule(
        (conv): Conv2d(960, 160, kernel_size=(1, 1), stride=(1, 1), bias=False)
        (bn): SyncBatchNorm(160, eps=0.001, momentum=0.1, affine=True, track_running_stats=True)
      )
    )
    (layer16): ConvModule(
      (conv): Conv2d(160, 960, kernel_size=(1, 1), stride=(1, 1), dilation=(4, 4), bias=False)
      (bn): SyncBatchNorm(960, eps=0.001, momentum=0.1, affine=True, track_running_stats=True)
      (activate): Hardswish()
    )
  )
  init_cfg={'type': 'Pretrained', 'checkpoint': 'open-mmlab://contrib/mobilenet_v3_large'}
  (decode_head): MultiDepthwiseSeparableASPPHead(
    input_transform=None, ignore_index=255, align_corners=False
    (loss_decode): CombinedCrossEntropyLoss(avg_non_ignore=False)
    (conv_seg): Conv2d(128, 11, kernel_size=(1, 1), stride=(1, 1))
    (dropout): Dropout2d(p=0.1, inplace=False)
    (image_pool): Sequential(
      (0): AdaptiveAvgPool2d(output_size=1)
      (1): ConvModule(
        (conv): Conv2d(960, 128, kernel_size=(1, 1), stride=(1, 1), bias=False)
        (bn): SyncBatchNorm(128, eps=1e-05, momentum=0.1, affine=True, track_running_stats=True)
        (activate): ReLU(inplace=True)
      )
    )
    (aspp_modules): DepthwiseSeparableASPPModule(
      (0): ConvModule(
        (conv): Conv2d(960, 128, kernel_size=(1, 1), stride=(1, 1), bias=False)
        (bn): SyncBatchNorm(128, eps=1e-05, momentum=0.1, affine=True, track_running_stats=True)
        (activate): ReLU(inplace=True)
      )
      (1): DepthwiseSeparableConvModule(
        (depthwise_conv): ConvModule(
          (conv): Conv2d(960, 960, kernel_size=(3, 3), stride=(1, 1), padding=(12, 12), dilation=(12, 12), groups=960, bias=False)
          (bn): SyncBatchNorm(960, eps=1e-05, momentum=0.1, affine=True, track_running_stats=True)
          (activate): ReLU(inplace=True)
        )
        (pointwise_conv): ConvModule(
          (conv): Conv2d(960, 128, kernel_size=(1, 1), stride=(1, 1), bias=False)
          (bn): SyncBatchNorm(128, eps=1e-05, momentum=0.1, affine=True, track_running_stats=True)
          (activate): ReLU(inplace=True)
        )
      )
      (2): DepthwiseSeparableConvModule(
        (depthwise_conv): ConvModule(
          (conv): Conv2d(960, 960, kernel_size=(3, 3), stride=(1, 1), padding=(24, 24), dilation=(24, 24), groups=960, bias=False)
          (bn): SyncBatchNorm(960, eps=1e-05, momentum=0.1, affine=True, track_running_stats=True)
          (activate): ReLU(inplace=True)
        )
        (pointwise_conv): ConvModule(
          (conv): Conv2d(960, 128, kernel_size=(1, 1), stride=(1, 1), bias=False)
          (bn): SyncBatchNorm(128, eps=1e-05, momentum=0.1, affine=True, track_running_stats=True)
          (activate): ReLU(inplace=True)
        )
      )
      (3): DepthwiseSeparableConvModule(
        (depthwise_conv): ConvModule(
          (conv): Conv2d(960, 960, kernel_size=(3, 3), stride=(1, 1), padding=(36, 36), dilation=(36, 36), groups=960, bias=False)
          (bn): SyncBatchNorm(960, eps=1e-05, momentum=0.1, affine=True, track_running_stats=True)
          (activate): ReLU(inplace=True)
        )
        (pointwise_conv): ConvModule(
          (conv): Conv2d(960, 128, kernel_size=(1, 1), stride=(1, 1), bias=False)
          (bn): SyncBatchNorm(128, eps=1e-05, momentum=0.1, affine=True, track_running_stats=True)
          (activate): ReLU(inplace=True)
        )
      )
    )
    (bottleneck): ConvModule(
      (conv): Conv2d(640, 128, kernel_size=(3, 3), stride=(1, 1), padding=(1, 1), bias=False)
      (bn): SyncBatchNorm(128, eps=1e-05, momentum=0.1, affine=True, track_running_stats=True)
      (activate): ReLU(inplace=True)
    )
    (global_average_pooling): AdaptiveAvgPool2d(output_size=(1, 1))
    (multi_label_classifier): Linear(in_features=960, out_features=10, bias=True)
    (c1_bottleneck): ConvModule(
      (conv): Conv2d(16, 48, kernel_size=(1, 1), stride=(1, 1), bias=False)
      (bn): SyncBatchNorm(48, eps=1e-05, momentum=0.1, affine=True, track_running_stats=True)
      (activate): ReLU(inplace=True)
    )
    (sep_bottleneck): Sequential(
      (0): DepthwiseSeparableConvModule(
        (depthwise_conv): ConvModule(
          (conv): Conv2d(176, 176, kernel_size=(3, 3), stride=(1, 1), padding=(1, 1), groups=176, bias=False)
          (bn): SyncBatchNorm(176, eps=1e-05, momentum=0.1, affine=True, track_running_stats=True)
          (activate): ReLU(inplace=True)
        )
        (pointwise_conv): ConvModule(
          (conv): Conv2d(176, 128, kernel_size=(1, 1), stride=(1, 1), bias=False)
          (bn): SyncBatchNorm(128, eps=1e-05, momentum=0.1, affine=True, track_running_stats=True)
          (activate): ReLU(inplace=True)
        )
      )
      (1): DepthwiseSeparableConvModule(
        (depthwise_conv): ConvModule(
          (conv): Conv2d(128, 128, kernel_size=(3, 3), stride=(1, 1), padding=(1, 1), groups=128, bias=False)
          (bn): SyncBatchNorm(128, eps=1e-05, momentum=0.1, affine=True, track_running_stats=True)
          (activate): ReLU(inplace=True)
        )
        (pointwise_conv): ConvModule(
          (conv): Conv2d(128, 128, kernel_size=(1, 1), stride=(1, 1), bias=False)
          (bn): SyncBatchNorm(128, eps=1e-05, momentum=0.1, affine=True, track_running_stats=True)
          (activate): ReLU(inplace=True)
        )
      )
    )
  )
  init_cfg={'type': 'Normal', 'std': 0.01, 'override': {'name': 'conv_seg'}}
  (auxiliary_head): FCNHead(
    input_transform=None, ignore_index=255, align_corners=False
    (loss_decode): CrossEntropyLoss(avg_non_ignore=False)
    (conv_seg): Conv2d(128, 11, kernel_size=(1, 1), stride=(1, 1))
    (dropout): Dropout2d(p=0.1, inplace=False)
    (convs): Sequential(
      (0): ConvModule(
        (conv): Conv2d(960, 128, kernel_size=(3, 3), stride=(1, 1), padding=(1, 1), bias=False)
        (bn): SyncBatchNorm(128, eps=1e-05, momentum=0.1, affine=True, track_running_stats=True)
        (activate): ReLU(inplace=True)
      )
    )
  )
  init_cfg={'type': 'Normal', 'std': 0.01, 'override': {'name': 'conv_seg'}}
)
2022-07-01 11:42:12,137 - mmseg - INFO - Loaded 5156 images
2022-07-01 11:42:12,534 - mmseg - INFO - Loaded 2009 images
…
